task5-armor_detect/checkpoint/lenet.pt (torch, 199176 bytes, 10 tensors)

weight f4 [6, 1, 5, 5]
0	0xbf09f235	-0.53885204
1	0x3d415f11	0.047209803
2	0x3ed4d5f0	0.4156947
3	0x3e8aeb41	0.2713261
4	0xbe55ac55	-0.2086652
5	0xbf1c7347	-0.611134
6	0xbf8343da	-1.0255082
7	0xbfaf9971	-1.3718702
8	0xbfa685d9	-1.3009597
9	0xbf93a243	-1.1533893
10	0xbf22e6de	-0.63633525
11	0xbea32a06	-0.31868
12	0xbf4fc54c	-0.81160426
13	0xbf770013	-0.9648449
14	0xbed4e652	-0.4158197
15	0xbf81c374	-1.0137773
16	0xbf91c2d1	-1.1387578
17	0x3cc4561a	0.023966838
18	0xbe44c1ea	-0.19214597
19	0xbe9b384b	-0.30316386
20	0xbeb54251	-0.35402158
21	0xbe301c87	-0.17198382
22	0xbf0c7291	-0.54862314
23	0xbf598f1e	-0.84984004
24	0xbef75517	-0.48307106
25	0x3edbdac7	0.4294035
26	0x3f1b6c67	0.60712284
27	0x3ed10f1d	0.40831843
28	0x3eeec6ad	0.46635953
29	0x3e155258	0.14582193
30	0x3e6269ba	0.22110644
31	0x3ec74eb7	0.38927242
32	0x3f227c9c	0.6347139
33	0x3eef5585	0.46744934
34	0xbdf2c8bd	-0.11854694
35	0x3ee91442	0.45523268
36	0x3f073f17	0.5283064
37	0x3f255b4a	0.6459242
38	0x3f10e1ff	0.5659484
39	0x3d54b410	0.051929533
40	0x3e9f2a59	0.31086996
41	0x3e4c1324	0.19929177
42	0x3eda79e1	0.4267111
43	0x3ecc603e	0.39917177
44	0x3e105ed6	0.14098677
45	0xbecd395e	-0.4008283
46	0xbeca3456	-0.39493054
47	0xbeb3852f	-0.3506255
48	0xbf1cca20	-0.6124592
49	0xbf61b1df	-0.88162035
50	0x3e8122bb	0.2522181
51	0x3ece05a0	0.40238667
52	0x3f08e6b3	0.5347702
53	0x3efabf62	0.48974138
54	0x3d23e293	0.040011
55	0xbd863c11	-0.065544255
56	0x3de9a65b	0.11408683
57	0x3f3c6766	0.73595273
58	0x3f347664	0.7049315
59	0x3e9a60d2	0.30151993
60	0xbdca4a07	-0.09877401
61	0x3e26e84d	0.16299553
62	0x3f0c4429	0.54791504
63	0x3edeb4a6	0.434972
64	0x3e42aae8	0.19010508
65	0x3d0a8e19	0.03382692
66	0xbe1c41fa	-0.15259543
67	0xbd6f0b73	-0.05836053
68	0x3da6d5d3	0.081462525
69	0xbd30f09d	-0.043198217
70	0xbf2ad16f	-0.6672582
71	0xbf48c697	-0.78428024
72	0xbf55681f	-0.83362
73	0xbf5313ed	-0.8245228
74	0xbf8113fc	-1.0084224
75	0xbf7f411f	-0.9970874
76	0xbea1e889	-0.31622723
77	0xbe6c1930	-0.23056483
78	0x3d7045c4	0.058660284
79	0x3cae29c9	0.02126016
80	0xbf128aa2	-0.57242787
81	0xbe5e90a3	-0.21734862
82	0x3eb3c0e8	0.35108113
83	0x3f323400	0.69610596
84	0xbdfa0eb8	-0.12209839
85	0xbd2e758d	-0.042592574
86	0x3f1982ad	0.5996502
87	0x3f802ffc	1.0014644
88	0x3fa12239	1.2588569
89	0x3f0abf97	0.5419859
90	0xbc45d40a	-0.01207448
91	0x3e7142c3	0.23560624
92	0x3f0b3371	0.5437537
93	0x3f51ddd9	0.8197914
94	0x3ea2b48f	0.3177838
95	0xbf367a23	-0.71280116
96	0xbf0cf328	-0.55058527
97	0xbe9f96de	-0.3116979
98	0xbec78b69	-0.3897355
99	0xbe97a82d	-0.29620495
100	0xbfd4ab47	-1.661477
101	0xbfbe5ef0	-1.4872723
102	0xbf8fb056	-1.1225688
103	0xbf17cb7c	-0.5929487
104	0xbece0143	-0.40235338
105	0xbf5d69f2	-0.86489785
106	0xbeaebb45	-0.3412725
107	0xbf09ff32	-0.5390502
108	0xbe8c57a9	-0.2741063
109	0xbf015d21	-0.5053273
110	0xbd540d29	-0.051770363
111	0x3ebcfc74	0.36911356
112	0x3f569546	0.83821523
113	0x3f144c87	0.5792927
114	0x3e31634e	0.17323038
115	0x3dc260c2	0.09491111
116	0x3ef16521	0.47147468
117	0x3f2ef7bc	0.6834676
118	0x3f2f0fa1	0.6838322
119	0x3f22127f	0.6330947
120	0x3f0b2254	0.54349256
121	0x3f6d0194	0.92580533
122	0x3f85432d	1.0411125
123	0x3f854bbc	1.0413737
124	0x3f895dfa	1.0731804
125	0xbf8eb993	-1.1150383
126	0xbf2b2564	-0.6685393
127	0xbee2563d	-0.4420642
128	0xbe78dcad	-0.24302931
129	0xbe64a88a	-0.22329918
130	0xbf1e0e9b	-0.61741036
131	0xbefd0e7d	-0.49425116
132	0xbe1ec84e	-0.15506098
133	0xbde2ca9a	-0.110737994
134	0xbf0b6b13	-0.5446026
135	0x3ec9825f	0.39357278
136	0x3f0d75a4	0.5525763
137	0x3f4b5867	0.79431766
138	0x3f52438a	0.82134306
139	0x3ebc1dd8	0.3674152
140	0x3efef92c	0.49799478
141	0x3ea91df4	0.33030665
142	0x3e98bda2	0.29832178
143	0x3ea4178f	0.32049224
144	0x3e92c3cb	0.28665003
145	0xbf08c99a	-0.5343262
146	0xbeae82be	-0.34084123
147	0xbf05af79	-0.52220875
148	0xbf456911	-0.77113444
149	0xbf3f0a3d	-0.74625

bias f4 [6]
0	0x3eff084b	0.49811015
1	0xc00d970a	-2.2123437
2	0xc01a9be4	-2.4157648
3	0xc0219c08	-2.5251484
4	0xbfdde9c6	-1.7336967
5	0xc00c375a	-2.1908784

weight f4 [16, 6, 5, 5]
0	0x3f4c5cd1	0.79829127
1	0x3f61a7df	0.88146776
2	0x3f072fb2	0.5280715
3	0x3e318960	0.1733756
4	0xbe30ffa5	-0.1728502
5	0x3f18ac82	0.59638226
6	0x3f9a1b4a	1.2039578
7	0x3f8491a7	1.035695
8	0x3f0bfd0d	0.54683
9	0x3dbd21e1	0.092349775
10	0x3f61b788	0.8817067
11	0x3fae9fae	1.364248
12	0x3f7dfeeb	0.992171
13	0x3f513abf	0.81730264
14	0x3f4bb951	0.79579645
15	0x3f20f7ca	0.62878096
16	0x3f489d33	0.78364867
17	0x3f13dd57	0.5775961
18	0x3f158497	0.5840544
19	0x3f1e5e09	0.61862236
20	0x3f161b7b	0.5863568
21	0x3f2d318e	0.6765374
22	0x3ed08061	0.40722945
23	0x3eb4f2a2	0.35341364
24	0x3def35a9	0.11680157
25	0x3e0c4a6e	0.13700268
26	0xbd97bfd9	-0.07409639
27	0xbdd32471	-0.10309685
28	0x3cf280a1	0.02960235
29	0x3daf15f0	0.08549106
30	0xbebca37d	-0.36843482
31	0xbf0c6180	-0.54836273
32	0xbed09895	-0.4074141
33	0xbe53428b	-0.20630853
34	0x3d6d761b	0.057973962
35	0xbf327b13	-0.69719046
36	0xbf78499c	-0.9698732
37	0xbf3b7a17	-0.7323317
38	0xbf0c6e95	-0.54856235
39	0xbdc2596b	-0.094897114
40	0xbeffd1ca	-0.49964744
41	0xbf55624f	-0.8335313
42	0xbee7e956	-0.4529521
43	0xbe810977	-0.25202534
44	0xbe27c01b	-0.16381876
45	0xbe3db569	-0.18526234
46	0xbeb33309	-0.34999874
47	0xbe095dc6	-0.13414678
48	0x3a893e41	0.0010470824
49	0x3d5bf876	0.053703748
50	0x3e9c90bf	0.30579183
51	0x3e886ee7	0.26647112
52	0x3e6fbf46	0.23412809
53	0x3eb787dc	0.3584584
54	0x3e68df08	0.2274133
55	0xbebd0a83	-0.36922082
56	0xbef3b7a3	-0.4760104
57	0xbe6aca5c	-0.22928756
58	0x3de72b58	0.11287564
59	0x3ef1c197	0.4721801
60	0xbef44e95	-0.47716203
61	0xbf38a0f3	-0.7212059
62	0xbf03fe91	-0.5156031
63	0xbeb64cec	-0.35605562
64	0xbddbdb4d	-0.10735188
65	0xbf5a175f	-0.8519191
66	0xbf94c67e	-1.1623075
67	0xbef06ac2	-0.4695645
68	0xbe7af10a	-0.24506012
69	0xbe5941d6	-0.2121652
70	0xbe9fc069	-0.31201485
71	0xbe984f6c	-0.29748094
72	0xbd985169	-0.07437403
73	0xbd8c6711	-0.06855596
74	0xbd4f7dff	-0.05065727
75	0xbd5958e3	-0.053063285
76	0xbe8294c2	-0.25504118
77	0x3e6f786e	0.23385784
78	0x3f2593fa	0.6467892
79	0x3f1955cd	0.59896547
80	0xbdca74c3	-0.09885552
81	0xbec33fbf	-0.38134572
82	0xbea7421e	-0.3266763
83	0xbc529e0b	-0.012855063
84	0xbd474a4f	-0.04865485
85	0xbf831685	-1.0241247
86	0xbf95936a	-1.1685612
87	0xbf38a405	-0.72125274
88	0xbe23fdb0	-0.16014743
89	0x3cce4272	0.025178168
90	0xbe1b612e	-0.1517379
91	0xbed063b1	-0.40701059
92	0xbda8872c	-0.08228907
93	0x3abf83e2	0.0014611448
94	0xbe0fa8bf	-0.14029215
95	0xbd523a59	-0.051325176
96	0xbe2be9b4	-0.1678837
97	0x3d5ef2f4	0.054430917
98	0x3e701e85	0.23449142
99	0x3df2b151	0.11850227
100	0xbf293c9c	-0.6610811
101	0xbf765b89	-0.9623342
102	0xbe9fd246	-0.31215113
103	0x3e47c436	0.19508442
104	0x3e2d94e3	0.16951327
105	0xbf7d6a20	-0.9899006
106	0xbfb8ee74	-1.444777
107	0xbf5fc8c2	-0.8741571
108	0xbee2c8b2	-0.44293743
109	0x3d1591ec	0.036516115
110	0xbea11291	-0.31459478
111	0xbe0e09ba	-0.13870898
112	0x3d912364	0.07086828
113	0x3dd4c6e8	0.10389501
114	0x3a9ec4f4	0.001211314
115	0xbe8dc57b	-0.27689728
116	0xbe233af3	-0.15940456
117	0xbdfac95d	-0.12245438
118	0xbd6e51d8	-0.05818352
119	0xbd6d86ee	-0.057990007
120	0xbe9eea3e	-0.31038088
121	0xbda970f0	-0.08273494
122	0x3d85d8fc	0.06535527
123	0xbce3e8bc	-0.027820937
124	0xbd295c74	-0.041347936
125	0xbdd6dccc	-0.104913324
126	0xbe24d1ad	-0.1609561
127	0x3e212cca	0.15739742
128	0x3ef1a038	0.4719255
129	0x3f21a35a	0.6313988
130	0xbe19f7cd	-0.15035935
131	0xbe9959bd	-0.29951277
132	0xbedaf8e6	-0.4276802
133	0xbe5f4496	-0.21803507
134	0xbd0ec080	-0.03485155
135	0xbf526e97	-0.82199997
136	0xbf1540a4	-0.5830176
137	0xbe8b5ef4	-0.2722088
138	0x3ead5d75	0.33860365
139	0x3e8b43b1	0.27200082
140	0xbe2e2bcd	-0.17008896
141	0xbe50028a	-0.20313469
142	0x3c6e767f	0.014554619
143	0xbd67d969	-0.056603823
144	0xbe006735	-0.1253937
145	0xbe2a087f	-0.16604804
146	0xbd2a33d8	-0.04155335
147	0x3c6f2af6	0.014597645
148	0x3d963a8a	0.07335384
149	0x3e67513f	0.22589587
150	0x3f375a4f	0.71622175
151	0x3f69804f	0.9121141
152	0x3f23ff5f	0.6406154
153	0x3eb333f3	0.35000572
154	0x3ea0be12	0.31395012
155	0x3f188043	0.5957071
156	0x3f89c0c7	1.0761956
157	0x3f930c78	1.148818
158	0x3f91270a	1.1340039
159	0x3f620413	0.88287467
160	0x3f867a98	1.0506163
161	0x3f86f297	1.0542783
162	0x3ef1e7c9	0.4724715
163	0x3f3d7aea	0.74015677
164	0x3f76fdfb	0.96481293
165	0x3ee65783	0.4498864
166	0x3ecf2851	0.40460446
167	0x3f1150f8	0.56764174
168	0x3f53fe13	0.8280956
169	0x3f510022	0.8164083
170	0xbe76dead	-0.24108382
171	0xbe145d71	-0.1448877
172	0x3e2e9eb9	0.17052735
173	0x3eb7ca18	0.35896373
174	0x3e83506e	0.256473
175	0xbe677621	-0.22603656
176	0xbeb4e49c	-0.35330665
177	0xbeb379dc	-0.3505391
178	0xbdf0439a	-0.11731644
179	0x3b9709f6	0.0046093417
180	0xbe7d23d1	-0.24720694
181	0xbed18582	-0.4092217
182	0xbedd8068	-0.4326203
183	0xbf22c2ae	-0.6357831
184	0xbed64b50	-0.41854334
185	0xbf53957c	-0.8264997
186	0xbf468c28	-0.7755761
187	0xbf69f051	-0.9138232
188	0xbf8d7c6d	-1.1053597
189	0xbf498204	-0.78714013
190	0xbef6022e	-0.48048538
191	0xbf0b95fe	-0.54525745
192	0xbe85ded6	-0.26146573
193	0xbe8f41aa	-0.27979785
194	0xbf120eda	-0.5705391
195	0x3e8b9f49	0.27269962
196	0x3e786729	0.24258102
197	0xbd34a606	-0.044103645
198	0xbeb00c44	-0.34384358
199	0xbe120657	-0.14260231
200	0xbe18d4dd	-0.14924951
201	0xbe9301c4	-0.28712285
202	0xbde89a1d	-0.1135752
203	0xbcc64fd5	-0.024207989
204	0x3bd33919	0.0064460156
205	0xbd952664	-0.07282713
206	0xbe4afa81	-0.19822122
207	0xbe9bdc56	-0.3044154
208	0xbebe9c79	-0.37228754
209	0xbe09cc1f	-0.13456772
210	0xbedadbe6	-0.42745894
211	0xbedae65a	-0.4275387
212	0xbf270222	-0.6523763
213	0xbf6ffd86	-0.9374622
214	0xbf74fb05	-0.95695525
215	0xbf73ab86	-0.951836
216	0xbf6257e1	-0.8841534
217	0xbe9c8cbe	-0.30576128
218	0xbf0018cd	-0.50037843
219	0xbf455144	-0.77077127
220	0x3ebdb838	0.3705461
221	0x3e39071d	0.1806912
222	0xbe87018a	-0.26368362
223	0xbf0c1781	-0.54723364
224	0xbf0f53bf	-0.5598716
225	0xbdfb1abd	-0.12260959
226	0xbd9b552b	-0.07584604
227	0xbdfe9454	-0.12430635
228	0x3d6c4732	0.057685085
229	0x3e350c47	0.17680465
230	0xbc81d9de	-0.015850957
231	0xbeb30f2c	-0.34972513
232	0xbf450d85	-0.76973754
233	0xbf55baa1	-0.834879
234	0xbf6415dd	-0.8909586
235	0xbfadbac3	-1.357262
236	0xbef1e12b	-0.47242102
237	0xbed09e08	-0.40745568
238	0xbe75ec7a	-0.2401599
239	0xbedbf99b	-0.4296387
240	0x3e6e14e8	0.23250163
241	0xbd0e313e	-0.03471493
242	0xbe443a77	-0.19162928
243	0xbf09599a	-0.53652346
244	0xbf14e769	-0.58165604
245	0x3f0fcb82	0.56169903
246	0x3e855992	0.260449
247	0xbd707414	-0.05870445
248	0xbc807884	-0.015682466
249	0x3c830f78	0.015998587
250	0xbe97490f	-0.29547927
251	0xbf2e7375	-0.68144923
252	0xbf509217	-0.81472915
253	0xbe93740f	-0.28799483
254	0xbde4af20	-0.11166215
255	0xbfa74587	-1.3068093

bias f4 [16]
0	0x3e526f11	0.20550181
1	0x3e19a8be	0.15005776
2	0xbe5791a0	-0.21051645
3	0x3d999e7e	0.07500933
4	0xbd80262e	-0.06257282
5	0x3e3767fe	0.17910764
6	0x3e87645b	0.26443753
7	0x3ed63684	0.41838467
8	0xbebcf45d	-0.36905184
9	0xbe5f7fef	-0.21826147
10	0x3e5f566f	0.21810316
11	0x3e23010a	0.15918365
12	0x3e24246a	0.16029516
13	0x3e3917ae	0.1807544
14	0xbe0f0cce	-0.13969728
15	0x3e5f7a79	0.21824063

weight f4 [120, 256]
0	0x3d6592c2	0.056048162
1	0xbe915cc2	-0.2839108
2	0x3e17e737	0.14834295
3	0x3f021842	0.50818264
4	0x3f0fdacf	0.5619325
5	0x3c88b1c8	0.016686335
6	0xbed88a1b	-0.42292866
7	0x3e525845	0.20541485
8	0x3ed04912	0.40680748
9	0x3edc2e18	0.43003917
10	0xbeb82f5d	-0.35973635
11	0x3dd17fdb	0.102294646
12	0xbf22f643	-0.63657016
13	0xbf648f58	-0.89281225
14	0xbf00cdfb	-0.503143
15	0x3f8c318d	1.0952622
16	0xbe8c7d1c	-0.274392
17	0xbedfabb3	-0.43685684
18	0x3e835448	0.2565024
19	0x3e895a38	0.26826644
20	0x3d55a692	0.052160807
21	0xbebc5c70	-0.36789274
22	0x3d7ecf4a	0.062209405
23	0x3f0ac82f	0.54211706
24	0x3e953d27	0.29148218
25	0xbe67a636	-0.22621998
26	0xbf017335	-0.50566417
27	0xbd0a2659	-0.033727977
28	0xbf0c22a7	-0.54740375
29	0xbf264017	-0.64941543
30	0xbd4be944	-0.049783006
31	0x3f4c88cd	0.7989624
32	0xbdca49dd	-0.098773696
33	0x3de95feb	0.11395248
34	0x3e84c383	0.25930414
35	0x3e33fbec	0.1757657
36	0x3e4b11cf	0.19831012
37	0x3e2de1a6	0.1698061
38	0xbef7e17a	-0.48414212
39	0xbe201160	-0.15631628
40	0xbd742737	-0.05960771
41	0x3d0f4585	0.03497841
42	0x3de02e26	0.10946302
43	0x3d8f6cd9	0.07003183
44	0xbe1abc86	-0.15110978
45	0xbd86a409	-0.06574256
46	0x3d77a190	0.060456812
47	0x3e914a9a	0.2837723
48	0xbf86a66a	-1.0519536
49	0xbea6e3e6	-0.32595748
50	0x3e50e70a	0.20400634
51	0x3e543325	0.20722635
52	0x3e6b33b1	0.22968937
53	0x3e35c16f	0.1774957
54	0x3f56ca4d	0.83902436
55	0x3ee93926	0.45551413
56	0xbd33b18c	-0.043870494
57	0xbfc927b7	-1.5715245
58	0xbf56bd32	-0.8388244
59	0xbeb0dd9c	-0.34544075
60	0xbf17238b	-0.5903861
61	0xbf24b335	-0.6433595
62	0xbeb211ef	-0.34779307
63	0x3fad7e7b	1.3554224
64	0xbf236bd4	-0.6383641
65	0xbfb11d18	-1.3837004
66	0xbd9d0362	-0.07666661
67	0x3d6ecf09	0.058302913
68	0xbdfa34a8	-0.12217075
69	0xbe9599ff	-0.29219052
70	0x3ec70e8c	0.38878286
71	0x3f379bbc	0.71722007
72	0xbd8154d0	-0.06315005
73	0xbee3e572	-0.4451099
74	0xbe8c13fd	-0.27359
75	0xbd8e361d	-0.06943915
76	0xbea449b9	-0.32087496
77	0xbf2f97b8	-0.6859088
78	0xbf7e616e	-0.99367416
79	0x3e1b1e0c	0.1514818
80	0xbed0dd71	-0.40793946
81	0xbf8928a4	-1.0715528
82	0xbf458cc6	-0.7716793
83	0xbd707186	-0.058702014
84	0xbdc7fcf3	-0.09765043
85	0x3c2db2e4	0.010601733
86	0x3ea074b3	0.31339034
87	0x3f1fbbc0	0.6239586
88	0x3e530ce0	0.2061038
89	0xbe855572	-0.26041752
90	0xbed283c2	-0.41116148
91	0x3c1d1074	0.009586442
92	0x3da4c40a	0.08045204
93	0xbf1d4d57	-0.61446136
94	0xbf8c8443	-1.0977863
95	0xbea69695	-0.3253676
96	0xbf1d15a3	-0.6136114
97	0xbec70694	-0.38872206
98	0x3eb80255	0.3593928
99	0x3f3b8be8	0.73260355
100	0xbdd3beee	-0.10339151
101	0xbeb443ad	-0.35207883
102	0xbf1e5bad	-0.61858636
103	0x3e04c7cb	0.1296684
104	0x3e16f3de	0.14741465
105	0xbe30ab83	-0.17252927
106	0xbee4a34b	-0.44655833
107	0x3e2f59c6	0.1712409
108	0xbe9050f0	-0.2818675
109	0xbedab491	-0.42715886
110	0x3eac066f	0.33598658
111	0x3f9c18d7	1.219508
112	0xbdf6a9b4	-0.12044087
113	0xbe5a3bae	-0.21311828
114	0xbd8499d2	-0.064746514
115	0x3f13ada0	0.57686806
116	0x3ef37591	0.47550634
117	0xbcb503e8	-0.02209659
118	0xbf334bf8	-0.70037794
119	0xbe436d71	-0.19084717
120	0x3e626bcc	0.22111434
121	0x3dd62f57	0.10458248
122	0xbee66d33	-0.45005187
123	0x3d231c8e	0.039822154
124	0xbf073553	-0.5281574
125	0xbf11e0b5	-0.569835
126	0xbde690bc	-0.11258075
127	0x3fa491f3	1.285704
128	0x3d53309e	0.051560037
129	0x3e475288	0.19465077
130	0x3e90f4ae	0.28311676
131	0xbe1965ce	-0.14980242
132	0x3daec7f6	0.08534233
133	0x3e183048	0.14862168
134	0xbea836d0	-0.3285432
135	0xbee07ef3	-0.43846855
136	0xbe41165c	-0.18856186
137	0x3e08f6dd	0.13375421
138	0x3e520b27	0.20512067
139	0xbd1816b2	-0.03713102
140	0xbf4c15cf	-0.7972078
141	0xbed6768e	-0.41887325
142	0xbd3d98f2	-0.04628844
143	0x3ee55374	0.44790232
144	0xbcd1ed15	-0.025625745
145	0x3e89624f	0.26832816
146	0x3de1c5c9	0.11024053
147	0x3b39c828	0.0028348062
148	0x3db6dce7	0.089288525
149	0xbf12fd6b	-0.57417935
150	0xbeaf89f2	-0.3428493
151	0xbedb1153	-0.42786655
152	0xbdefa988	-0.117022574
153	0xbde35f25	-0.11102132
154	0xbdb2e257	-0.08734577
155	0xbe23724e	-0.15961573
156	0xbd651796	-0.055930696
157	0xbe8b7d18	-0.27243876
158	0xbe03ae38	-0.12859428
159	0x3e478ee6	0.19488105
160	0xbe46c344	-0.19410425
161	0xbf23a953	-0.63930243
162	0xbef895ec	-0.4855188
163	0x3c37e366	0.01122365
164	0x3e2a93ae	0.16657898
165	0xbdac3072	-0.08407678
166	0x3d232772	0.03983254
167	0x3f06d611	0.5267039
168	0x3eb42141	0.3518162
169	0xbd435f7e	-0.04769849
170	0xbf3d149f	-0.7385959
171	0xbe93d02d	-0.28869763
172	0x3e2c5f24	0.16833168
173	0xbeb2e44b	-0.349398
174	0xbf704839	-0.93860203
175	0x3d5d7643	0.05406786
176	0xbf303943	-0.68837374
177	0xbf157f27	-0.58397144
178	0xbdb097a7	-0.086226754
179	0x3f6b87a6	0.9200386
180	0x3ebe199e	0.3712892
181	0x3ea0536a	0.3131364
182	0xbe45ed83	-0.19328885
183	0x3e734407	0.23756419
184	0x3db5413b	0.08850332
185	0xbcacf3a4	-0.02111227
186	0xbd816e60	-0.063198805
187	0x3f0878f1	0.5330954
188	0xbed26024	-0.41088974
189	0xbf19b478	-0.60041
190	0xbec9fb0c	-0.39449346
191	0x3f14df1f	0.58152956
192	0x3e5cb831	0.21554638
193	0xbe8e3381	-0.2777367
194	0xbcc8cc5b	-0.024511507
195	0x3ed34002	0.41259772
196	0x3e8e8c4f	0.27841422
197	0x3e3ae9f9	0.18253316
198	0x3eebf3d9	0.46084478
199	0x3f86445c	1.0489612
200	0x3f378aa5	0.7169593
201	0x3e7519c9	0.23935618
202	0x3e884d73	0.2662159
203	0x3f0a3b66	0.53996885
204	0x3ea77648	0.3270743
205	0xbed708cb	-0.41998896
206	0xbf35c7a5	-0.7100776
207	0x3e02ee56	0.1278623
208	0xbe41852b	-0.18898456
209	0xbed4f7ac	-0.4159521
210	0xbeafdfa7	-0.3435032
211	0x3d20a861	0.03922308
212	0x3de86487	0.11347299
213	0xbeca26ab	-0.39482626
214	0xbe020011	-0.12695338
215	0x3e8a3d04	0.26999676
216	0x3ee90fd2	0.45519882
217	0x3ed3652c	0.41288126
218	0x3da23349	0.07919938
219	0x3f0e9935	0.55702525
220	0x3eb979a6	0.36225623
221	0xbe8e68e0	-0.27814388
222	0xbf86ca35	-1.0530459
223	0xbf13ea24	-0.57779145
224	0xbd854508	-0.06507307
225	0xbf10dbd2	-0.5658542
226	0xbe05c2e9	-0.13062634
227	0xbe872bfa	-0.2640074
228	0x3e8b2888	0.2717936
229	0x3e8e8ff8	0.27844214
230	0x3ebca266	0.3684265
231	0x3f2b410b	0.6689612
232	0x3e220749	0.15823092
233	0xbf1331d4	-0.57497907
234	0xbf89af72	-1.0756667
235	0xbf39b4a9	-0.7254129
236	0xbf32c90a	-0.6983801
237	0xbf55f065	-0.8356994
238	0xbf9a1d35	-1.2040163
239	0xbe89cbd1	-0.26913312
240	0xbedbe35a	-0.42946893
241	0xbf7c3268	-0.98514414
242	0xbd91c262	-0.07117154
243	0x3e285cd2	0.16441658
244	0xbcf5690c	-0.029957317
245	0xbee22b9e	-0.44173902
246	0xbe5b140a	-0.21394363
247	0x3f56fc66	0.8397888
248	0x3c9d0688	0.019168153
249	0xbf0d2b99	-0.5514465
250	0xbeea9813	-0.45819148
251	0xbdb5cc4f	-0.088768594
252	0xbeb089b8	-0.3448007
253	0xbf03fb3b	-0.5155522
254	0x3e0f7793	0.14010458
255	0x3f4c2262	0.79739964

bias f4 [120]
0	0x3eb9b4f9	0.36270884
1	0x3f2f75bc	0.68539023
2	0x3e71e741	0.23623373
3	0xbdeb966d	-0.11503301
4	0x3eb03a30	0.34419394
5	0xbdda8497	-0.10669821
6	0x3f09dd15	0.5385297
7	0xbf0b17c8	-0.5433316
8	0x3e0453ae	0.12922546
9	0x3f019b5e	0.50627697
10	0x3da97534	0.08274308
11	0xbce4d935	-0.027935604
12	0x3f194c01	0.598816
13	0x3bd5f407	0.0065293345
14	0x3d6a73a1	0.05723918
15	0xbee3a8c7	-0.44464704
16	0xbe9b72a9	-0.30360916
17	0xbd58e4da	-0.052952625
18	0x3e0e6645	0.139062
19	0xbe0dc573	-0.13844852
20	0x3de952bf	0.11392736
21	0x3ed84d62	0.42246538
22	0xbe0d5e51	-0.1380551
23	0x3d580bb2	0.05274553
24	0x3efa556e	0.48893303
25	0x3e8e7472	0.27823216
26	0xbe8ac56f	-0.27103755
27	0x3d660b29	0.056162987
28	0xbed79e4d	-0.4211296
29	0x3eec2dda	0.46128732
30	0x3de2a90d	0.110674
31	0xbee6dc94	-0.45090163
32	0xbee1e6de	-0.4412145
33	0xbf0019a3	-0.5003912
34	0x3ead8e64	0.33897698
35	0x3bec7db2	0.0072171325
36	0xbf3a0575	-0.72664577
37	0xbe8591de	-0.2608785
38	0xbeea1df6	-0.45725983
39	0xbec2e0c7	-0.38062117
40	0x3ee6aff3	0.45056114
41	0xbead5fa9	-0.33862045
42	0xbf022887	-0.5084309
43	0xbe1a8626	-0.15090236
44	0x3e90fa81	0.2831612
45	0x3c40fe11	0.011779324
46	0xbe5edf2d	-0.21764822
47	0xbeee45a0	-0.46537495
48	0x3e47d933	0.19516449
49	0xbed1456d	-0.4087328
50	0xbf0505fe	-0.5196227
51	0x3dd7e416	0.10541551
52	0xbe90c40c	-0.28274572
53	0x3e839192	0.25697
54	0xbe1b9984	-0.1519528
55	0xbe98341f	-0.29727265
56	0xbf0be9bc	-0.54653525
57	0x3e9f51a4	0.31116974
58	0x3bb4e94a	0.0055209743
59	0xbd838958	-0.064226806
60	0xbb5fc961	-0.003414713
61	0xbe9a0525	-0.3008205
62	0x3d8cd34e	0.06876241
63	0xbd0ea653	-0.034826588
64	0xbe4c23fa	-0.19935599
65	0xbe639141	-0.22223379
66	0xbb301427	-0.002686748
67	0xbef00b05	-0.46883407
68	0x3d3c27ec	0.04593651
69	0x3ed1e9f6	0.4099881
70	0x3d5165bb	0.05112241
71	0x3ea1b99c	0.3158692
72	0xbdac1556	-0.08402507
73	0x3e47258b	0.19447915
74	0xbe6c2a61	-0.23063041
75	0x3df848d1	0.121232636
76	0xbf0294ed	-0.5100849
77	0xbee6f311	-0.4510732
78	0xbecb9791	-0.39764073
79	0x3f20c8a3	0.6280615
80	0xbed2bf2c	-0.41161478
81	0x3f3142fb	0.6924283
82	0xbd2b66f3	-0.041846227
83	0x3f18a14c	0.5962112
84	0xbe4568a7	-0.19278203
85	0xbeb25cb0	-0.3483634
86	0xbee8de47	-0.45482084
87	0x3f1bccc1	0.60859305
88	0x3df9f519	0.12204952
89	0x3ebea198	0.3723266
90	0xbf19cd2f	-0.6007871
91	0xbe982df4	-0.2972256
92	0xbe0f7cd9	-0.1401247
93	0xbe20c49d	-0.15700002
94	0xbeb73791	-0.3578458
95	0xbcd6abcd	-0.026204968
96	0xbdd3bf0c	-0.10339174
97	0x3dfb3ab0	0.12267053
98	0x3e27687a	0.16348448
99	0xbd0f6a9b	-0.035013776
100	0x3ec8722f	0.39149615
101	0xbf055e00	-0.5209656
102	0xbe8b2c85	-0.27182403
103	0xbebe3140	-0.3714695
104	0xbe296480	-0.16542244
105	0xbdebe66b	-0.11518558
106	0x3e2b93bf	0.1675558
107	0x3efc4f76	0.49279374
108	0xbd64417b	-0.05572651
109	0xbee2f632	-0.44328457
110	0x3e1c0716	0.15237078
111	0xbba8ba23	-0.0051491424
112	0x3e5d805b	0.21630995
113	0x3e8812b4	0.2657677
114	0xbe208da6	-0.15679035
115	0x3e92fab9	0.2870691
116	0x3c4ad39f	0.012379556
117	0xbdb10882	-0.08644201
118	0xbea53f98	-0.3227508
119	0x3e8495bd	0.2589549

weight f4 [84, 120]
0	0x3eb78755	0.35845438
1	0x3c738eb4	0.014865566
2	0xbea1a1b1	-0.31568673
3	0xbeeb872d	-0.46001568
4	0x3e4d65d7	0.2005838
5	0xbee74a26	-0.45173758
6	0xbe559df1	-0.20861031
7	0xbf43cbaf	-0.7648267
8	0x3e97dc4b	0.29660258
9	0x3f1cafb6	0.61205614
10	0x3f9e9d3b	1.2391733
11	0x3f1c1068	0.60962534
12	0xbeb7e43d	-0.3591632
13	0x3f1460b8	0.5796008
14	0x3e801746	0.25017756
15	0xbe59dd6b	-0.2127587
16	0xbe529a73	-0.2056673
17	0xbedf9b62	-0.43673235
18	0x3cafcc6f	0.021459786
19	0x3f851974	1.0398393
20	0x3e8759b4	0.26435626
21	0x3f170b3e	0.5900153
22	0xbf31fcf7	-0.6952662
23	0x3e750bb2	0.23930243
24	0x3e02a47b	0.12758057
25	0x3cd3f0b7	0.025871618
26	0xbe738e33	-0.23784713
27	0xbd9c3853	-0.076279305
28	0xbf040edb	-0.5158517
29	0x3e59159e	0.21199653
30	0xbe392752	-0.18081406
31	0xbf1d5fe5	-0.6147445
32	0x3ecadc56	0.39621228
33	0xbe64b65d	-0.22335191
34	0x3e84ea21	0.25959876
35	0x3eff4359	0.4985607
36	0xbd363662	-0.044485457
37	0x3e9a9eeb	0.3019937
38	0xbf272a3b	-0.65298814
39	0xbf2eae57	-0.6823477
40	0xbeed993a	-0.46405965
41	0xbd343336	-0.04399415
42	0x3eab3b6b	0.3344377
43	0xbf9ea875	-1.2395159
44	0x3e965964	0.29365075
45	0x3e84d86f	0.25946376
46	0x3e00eb18	0.12589681
47	0x3cf66101	0.030075552
48	0x3f0237aa	0.50866187
49	0xbee21b16	-0.4416129
50	0xbf013080	-0.5046463
51	0x3f093809	0.5360113
52	0xbb807b94	-0.0039209817
53	0x3e872e26	0.26402396
54	0x3f5d3c68	0.864203
55	0xbf0d7650	-0.55258656
56	0x3e87dbf6	0.26535004
57	0x3ed5155b	0.41617855
58	0xbea37e7f	-0.31932446
59	0xbdb0ff84	-0.08642486
60	0x3e85ec39	0.26156786
61	0xbdbe7a5c	-0.09300682
62	0x3e8865ad	0.26640072
63	0xbe08f056	-0.13372931
64	0x3e03151e	0.12801024
65	0x3df508de	0.11964582
66	0xbee8b68e	-0.45451778
67	0xbeae5312	-0.34047753
68	0x3eedf880	0.46478653
69	0x3f10c4b1	0.5655013
70	0x3e7bbfe8	0.24584925
71	0x3eecb9e1	0.46235564
72	0xbf427ade	-0.7596873
73	0x3f11f71c	0.57017684
74	0xbf3c3e8e	-0.7353295
75	0x3f0869b0	0.53286266
76	0x3e7ed786	0.24886903
77	0x3e288083	0.16455273
78	0x3e55d4b3	0.2088192
79	0xbc1485f1	-0.009065137
80	0xbfcd9118	-1.6059904
81	0xbe7fd329	-0.24982895
82	0xbe690a33	-0.22757797
83	0x3e425c4c	0.18980521
84	0xbf71bddb	-0.9443032
85	0xbebccbfa	-0.36874372
86	0xbfb86679	-1.4406272
87	0x3d761dc9	0.060087
88	0xbf17b5f4	-0.59262013
89	0x3e6b443b	0.22975247
90	0xbf50a433	-0.8150055
91	0x3e4a5075	0.19757254
92	0x3e303771	0.17208649
93	0xbed3fc21	-0.41403297
94	0xbf3b9edb	-0.7328927
95	0xbe993166	-0.299205
96	0x3f43881f	0.7637958
97	0x3f24a3e7	0.64312595
98	0x3f1a3fa8	0.6025338
99	0x3f50681c	0.8140886
100	0x3ec6464c	0.38725507
101	0xbfb4ce63	-1.4125484
102	0xbe23082e	-0.15921089
103	0xbf55982a	-0.8343531
104	0x3d7eaf95	0.062179167
105	0xbec316ce	-0.38103336
106	0x3eb007f3	0.34381065
107	0xbe1d158e	-0.15340254
108	0x3c153b4e	0.009108378
109	0xbe2e5bd0	-0.17027211
110	0x3ea8d09f	0.32971665
111	0x3df82565	0.121165074
112	0x3e4a6553	0.19765215
113	0x3e68198a	0.22665992
114	0x3e50c257	0.20386635
115	0x3ccb3717	0.024806542
116	0x3e8f78a8	0.2802174
117	0xbf03a03e	-0.51416385
118	0xbe337fd0	-0.17529225
119	0x3e82f7e8	0.25579762
120	0xbcb80239	-0.022461997
121	0xbe00f928	-0.12595046
122	0xbd1a45fb	-0.037664395
123	0xbdce453d	-0.100718
124	0x3ed4b72c	0.41546
125	0xbeee9736	-0.4659974
126	0xbf2220b3	-0.63331145
127	0xbeb4f34f	-0.3534188
128	0xbf313719	-0.692247
129	0xbfafe857	-1.374278
130	0xbfa65997	-1.2996091
131	0xbb938c56	-0.0045028133
132	0x3e8081be	0.25098985
133	0x3ec3d89a	0.3825119
134	0xbe8114e4	-0.2521125
135	0x3fe63040	1.7983475
136	0x3cd2f7d9	0.025752949
137	0x3f82e833	1.0227112
138	0x3ec927ab	0.39288077
139	0xbdd55767	-0.10417061
140	0xbf50f2a1	-0.8162022
141	0xbf9d9ac3	-1.2312855
142	0xbfa4e54e	-1.2882478
143	0xbe1dcdad	-0.1541049
144	0x3ea80e00	0.3282318
145	0xbecf8de9	-0.40537956
146	0x3f77ab04	0.96745324
147	0xbe7fa4f4	-0.24965268
148	0xbeb049ca	-0.34431297
149	0x3f1f81a0	0.6230717
150	0xbe98a118	-0.29810405
151	0xbea4ce57	-0.32188675
152	0x3ea4f566	0.32218474
153	0x3eca32a1	0.39491752
154	0x3e8643a1	0.26223472
155	0x3f27575b	0.6536767
156	0x3f21fc4b	0.63275594
157	0xbd23aa0a	-0.039957084
158	0x3ea4f0e7	0.32215044
159	0xbdf976af	-0.1218084
160	0xbe95a218	-0.2922523
161	0x3e70fee1	0.23534729
162	0x3ee10397	0.4394805
163	0x3e11d2d7	0.14240585
164	0xbe8f3b12	-0.27974755
165	0xbe6bfb95	-0.2304519
166	0x3f0f7ed1	0.5605288
167	0xbbffb403	-0.0078034415
168	0x3ec287cb	0.37994227
169	0xbee37959	-0.44428518
170	0x3f82bcae	1.021383
171	0xbf7f7ad3	-0.9979679
172	0xbd044b8f	-0.03229862
173	0xbe81981e	-0.2531137
174	0xbf8588aa	-1.0432332
175	0x3ef3b5f0	0.47599745
176	0x3e70acf9	0.23503484
177	0xbf261061	-0.6486874
178	0xbf158854	-0.58411145
179	0xbece7967	-0.40326998
180	0xbcee6def	-0.029105155
181	0x3f2f6868	0.68518686
182	0xbf47106b	-0.77759427
183	0xbd780525	-0.06055178
184	0x3e4fe318	0.20301473
185	0x3e1fdc15	0.15611298
186	0x3d9f196c	0.07768521
187	0x3f7b6fe2	0.98217595
188	0x3eb92f0c	0.36168706
189	0xbfaec809	-1.3654796
190	0xbedbac82	-0.4290505
191	0xbe3cea2e	-0.18448707
192	0xbd3aa463	-0.045566928
193	0xbf4e5197	-0.80593246
194	0x3f4eb5fb	0.8074643
195	0xbe5e922f	-0.21735452
196	0x3e9ac22b	0.30226263
197	0x3f0f07db	0.5587136
198	0xbd821857	-0.06352299
199	0xbf1cc0be	-0.612316
200	0x3f866dc7	1.0502251
201	0xbe8ba331	-0.27272943
202	0xb7cfbdfb	-2.476479e-05
203	0x3f2d277a	0.6763836
204	0xbf1154ba	-0.5676991
205	0xbec65104	-0.38733685
206	0x3fc1462f	1.5099543
207	0xbcb4ffbc	-0.0220946
208	0x3d55b86a	0.052177824
209	0xbe2e100c	-0.16998309
210	0xbdb80d5a	-0.089869216
211	0x3e148fc2	0.14507964
212	0xbd73c055	-0.059509594
213	0xbe9845f6	-0.29740876
214	0x3f9f8886	1.2463539
215	0xbe9aa617	-0.30204841
216	0x3cd9a099	0.026565837
217	0xbeb6d906	-0.3571245
218	0xbe97771d	-0.29583064
219	0xbeabca23	-0.33552656
220	0xbe6cdf00	-0.23131943
221	0x40010e8d	2.016513
222	0x3e9726fb	0.29521927
223	0x3b1f6e08	0.0024327058
224	0x3ef8ef52	0.48620087
225	0xbec034b7	-0.37540218
226	0xbf38d3ee	-0.7219838
227	0xbe0b66d8	-0.1361345
228	0xbc1d0a0c	-0.009584915
229	0x3e85d78a	0.26141006
230	0xbf3b569d	-0.73179036
231	0x3eb13b25	0.34615436
232	0x3f18a7de	0.59631145
233	0xbeb2b0d5	-0.34900537
234	0x3eb34d4a	0.35019904
235	0xbeecfcdd	-0.4628667
236	0xbe9e58ad	-0.3092703
237	0xbf648b05	-0.89274627
238	0xbf171255	-0.5901235
239	0x3f08ab17	0.5338606
240	0x3f17b8ee	0.59266555
241	0x3df441ec	0.11926636
242	0xbe1be167	-0.15222703
243	0x3ec9c22b	0.3940595
244	0x3e641ea8	0.2227732
245	0x3edb5353	0.4283701
246	0x3ebd6e16	0.3699805
247	0xbe974726	-0.2954647
248	0x3f1fd48f	0.62433714
249	0xbf39d41a	-0.72589266
250	0x3f565e5c	0.8373773
251	0xbf1f67e8	-0.62267923
252	0x3e7d53c0	0.2473898
253	0x3e101e5a	0.14074078
254	0x3ea4b4ec	0.32169282
255	0xbeca3b31	-0.39498284

bias f4 [84]
0	0xbd9e8a35	-0.07741205
1	0xbda8232f	-0.08209836
2	0xbbf2115e	-0.0073873242
3	0xbdbd1810	-0.09233105
4	0xbe9d7382	-0.30752188
5	0x3dce68f8	0.10078615
6	0xbe1b9fbd	-0.15197654
7	0x3f06d8d0	0.5267458
8	0x3e58010a	0.21094146
9	0x3e6f23d4	0.23353511
10	0x3ddaea84	0.106892616
11	0xbdd82510	-0.10553944
12	0x3ec047d7	0.3755481
13	0xbe2b76a1	-0.16744472
14	0xbb7ae0ed	-0.003828104
15	0xbe3a7f69	-0.18212666
16	0xbe71e5c6	-0.23622808
17	0xbc508e49	-0.012729236
18	0x3ddaf250	0.10690749
19	0xbdfb5e29	-0.12273819
20	0xbeddfdf0	-0.433578
21	0xbe1128f0	-0.14175773
22	0xbea83902	-0.32855994
23	0xbeee2680	-0.46513748
24	0xbd8599af	-0.065234534
25	0xbdcd1f98	-0.10015792
26	0xbe870c45	-0.26376548
27	0x3c326a5a	0.010889614
28	0x3e8e308f	0.27771422
29	0x3e9882bb	0.2978724
30	0xbe1644b2	-0.14674643
31	0xbd1d87b6	-0.038459502
32	0xbe81ad3c	-0.2532748
33	0xbd012370	-0.031527936
34	0xbe2a45ea	-0.16628233
35	0xbc77d35b	-0.015126075
36	0xbe9b9266	-0.3038513
37	0x3e20bc8e	0.15696928
38	0x3debd33b	0.115148984
39	0xbee21069	-0.44153145
40	0x3ce14359	0.027497934
41	0xbe4e3ab3	-0.2013958
42	0xbee6edcc	-0.451033
43	0x3e73544c	0.23762625
44	0xbe8d3914	-0.2758261
45	0xbe3d36b0	-0.18477893
46	0xbce5ae3d	-0.028037185
47	0xbe253895	-0.16134866
48	0xbebba2d1	-0.36647657
49	0xbdc87c8c	-0.097893804
50	0xbe26d647	-0.16292678
51	0xbe1733a9	-0.147658
52	0x3e3ae2d3	0.18250589
53	0x3df63ab1	0.12022913
54	0xbe66f16b	-0.22553031
55	0xbea685ad	-0.32523862
56	0x3e4e76b2	0.20162466
57	0xbf1902a0	-0.5976963
58	0xbf1e6f35	-0.6188844
59	0xbd67ea27	-0.05661979
60	0xbe6a87e7	-0.22903405
61	0xbe850867	-0.25982973
62	0xbda3c4ca	-0.07996519
63	0xbef6c474	-0.48196757
64	0xbf03a2d6	-0.5142034
65	0xbe12a97b	-0.14322464
66	0xbd9262a9	-0.07147724
67	0x3ec18fe5	0.37805095
68	0xbf116c16	-0.5680555
69	0xbe79593b	-0.24350445
70	0xbe168a77	-0.14701258
71	0xbe0fc9ab	-0.14041774
72	0xbf15bd33	-0.5849182
73	0x3e6a3319	0.22871055
74	0xbea6b05a	-0.3255642
75	0xbea39b17	-0.31954262
76	0xbf187666	-0.5955566
77	0x3dc05d00	0.09392738
78	0x3cbed297	0.023293776
79	0x3e97cc0d	0.29647866
80	0xbf1f3ae5	-0.6219924
81	0xbf09052f	-0.53523535
82	0x3ddc987c	0.107712716
83	0xbf008f6d	-0.5021885

weight f4 [9, 84]
0	0xbe019907	-0.12656032
1	0xbf20f5b9	-0.62874943
2	0x3e8cec61	0.27524093
3	0xbe486d2d	-0.19572897
4	0xc0379ee9	-2.869074
5	0x3ed73fe6	0.42040938
6	0x3e8e3361	0.27773574
7	0x3fb4db02	1.4129336
8	0xbfba2414	-1.454226
9	0xbe276819	-0.16348304
10	0xc0104dd6	-2.2547507
11	0x3e8e8a97	0.2784011
12	0x3f2284a9	0.63483673
13	0x3f567482	0.83771527
14	0xc048a018	-3.1347713
15	0x3d94c064	0.07263258
16	0x3eb76654	0.35820258
17	0xbd47dfa2	-0.048797257
18	0xbf50fb53	-0.8163349
19	0xbd4591db	-0.0482348
20	0x3eb91f29	0.36156586
21	0xbec1008d	-0.37695733
22	0x3f5101f5	0.8164361
23	0x3d105e3a	0.03524611
24	0xbee1f137	-0.44129345
25	0xbe6ba6c8	-0.23012841
26	0x3f15f379	0.58574635
27	0x3c8f6299	0.01750307
28	0xc086882f	-4.204124
29	0xbf520a6c	-0.8204715
30	0x3e61a63c	0.2203607
31	0xc00cf4ed	-2.202449
32	0x3f823439	1.0172187
33	0x3f2bb242	0.67068875
34	0xbf958a25	-1.1682783
35	0x3ec97cb6	0.3935296
36	0x3eb98679	0.36235407
37	0x3d074016	0.0330201
38	0x3d3243f8	0.04352185
39	0xbe81b197	-0.25330803
40	0xbf4b9d6e	-0.79537094
41	0x3f22ec8e	0.63642204
42	0xbf64ffaf	-0.8945264
43	0xbf9600d5	-1.1719004
44	0xbe3ff69f	-0.18746422
45	0xbf90d53c	-1.1315074
46	0x3f17ae15	0.59250003
47	0x3f3cf6b7	0.73813957
48	0xbd1b1e42	-0.037870653
49	0xc006f44d	-2.108661
50	0xc012e6dc	-2.2953405
51	0xbf9cddf3	-1.2255234
52	0xbfebd723	-1.842503
53	0xbf342255	-0.70364887
54	0x3d2e74a3	0.042591702
55	0x3d65d902	0.056115158
56	0xc01dad9c	-2.4637213
57	0xbf4331f4	-0.762481
58	0x3f5e93e7	0.8694443
59	0xbf1ec6a9	-0.6202188
60	0x3e5a678b	0.21328561
61	0xbdbcb966	-0.092150494
62	0x3d50d219	0.050981615
63	0xc03ee94b	-2.982989
64	0xbe401e57	-0.18761574
65	0xbe37b8ca	-0.17941585
66	0x3eaff705	0.34368148
67	0x3e6b8274	0.22998983
68	0x3f0b5b5f	0.54436296
69	0xbf54694b	-0.82973164
70	0xc007614b	-2.1153133
71	0x3e9f177a	0.310726
72	0xc0c957e0	-6.291977
73	0xbf4314fd	-0.762039
74	0x3f10baae	0.5653485
75	0x3d9595a5	0.07303933
76	0x3f0b5824	0.54431367
77	0xbed1993b	-0.40937218
78	0xbf2c8f1e	-0.6740588
79	0x3eb4b981	0.35297778
80	0xbfd417b5	-1.6569735
81	0xc0163f52	-2.3476148
82	0x3dfd449a	0.123666
83	0xbfa1e5c4	-1.2648244
84	0x3e92f166	0.28699797
85	0x3f1e419c	0.6181886
86	0xbd134287	-0.035952117
87	0xbfbffd56	-1.4999187
88	0xbf91854f	-1.1368808
89	0xbf43c01c	-0.7646501
90	0x3e8d2bae	0.27572387
91	0xc00fe48f	-2.248325
92	0x3ee5b452	0.44864136
93	0xbf82d970	-1.0222607
94	0xbdb114da	-0.08646555
95	0xbf6740c3	-0.90333194
96	0xbdea5b27	-0.11443167
97	0x3f8c72d8	1.0972548
98	0xbfcee22a	-1.616277
99	0xbdfc4567	-0.12317925
100	0x3e55a3af	0.20863222
101	0xc021917d	-2.524505
102	0xbf931abf	-1.1492537
103	0xbf895aca	-1.0730832
104	0x3fa1b720	1.263401
105	0xbfd3a2c7	-1.6534051
106	0x3fd1fe03	1.6405643
107	0xbfa2ccd2	-1.2718756
108	0xbe68496b	-0.22684257
109	0x3e31d8ad	0.17367812
110	0x3f96ab8d	1.1771103
111	0xbcb8aea1	-0.022544207
112	0xbfc87d4f	-1.5663241
113	0xbf3d0805	-0.7384036
114	0xbf306799	-0.6890808
115	0x3e58beb8	0.21166503
116	0xc031ea96	-2.779943
117	0xbf455f85	-0.77098876
118	0xc02794f3	-2.6184661
119	0x3f06073e	0.523548
120	0xbf9430e0	-1.1577415
121	0xbf92b76d	-1.1462227
122	0x3dabbe04	0.08385852
123	0xbe73afab	-0.23797481
124	0xc008d937	-2.1382577
125	0xbe888abc	-0.26668346
126	0x3f7bdf2d	0.98387414
127	0xbfe21f3d	-1.7665783
128	0x3ed4e673	0.4158207
129	0x3f1cef44	0.6130259
130	0x3f1040c8	0.5634885
131	0xc0892142	-4.28531
132	0x3ee3ec6a	0.44516307
133	0xbfc2c25b	-1.5215563
134	0x3f3ff3f8	0.7498164
135	0xbff28c68	-1.8949099
136	0x3f0a7fac	0.5410106
137	0xbffec563	-1.9903988
138	0x3dab7743	0.08372357
139	0x3f1c1a92	0.60978043
140	0x3d2bf6c9	0.0419834
141	0xbfd8158e	-1.6881578
142	0x3fb38459	1.4024764
143	0x3f54b823	0.8309347
144	0xc0139d2a	-2.3064675
145	0x3fa71b9a	1.3055298
146	0xc016735a	-2.3507905
147	0x3e250ef5	0.16118987
148	0xbef7b64b	-0.48381266
149	0xbf88e040	-1.0693436
150	0xbf92b6f0	-1.1462078
151	0x3e9efa76	0.31050462
152	0xc05e3fa9	-3.4726355
153	0xbfcca430	-1.5987606
154	0x3e9f5b38	0.31124282
155	0xbfd3f25b	-1.6558336
156	0xbfeb1d3b	-1.8368295
157	0xbe1aa880	-0.1510334
158	0xbf53d133	-0.8274109
159	0xc0618851	-3.523945
160	0x3f824206	1.0176399
161	0xbfa1f5c2	-1.2653124
162	0x3de4fcce	0.11181031
163	0x3efa8df7	0.48936436
164	0xbe0d0ecc	-0.13775176
165	0xc02543e6	-2.5822692
166	0x3e338e18	0.17534673
167	0xc00bea9e	-2.186195
168	0x3db8cac1	0.09023047
169	0x3e621cfd	0.2208137
170	0x3ea60742	0.32427412
171	0x3fa625e8	1.2980318
172	0xbf80a77a	-1.005111
173	0xbecfef34	-0.40612185
174	0x3df6ee23	0.1205714
175	0xbf0a0e00	-0.5392761
176	0xbedd8938	-0.43268752
177	0x3e8100ea	0.2519601
178	0xbf136259	-0.5757194
179	0xc02723bf	-2.6115568
180	0xbda86f3b	-0.082243405
181	0xbf0269bc	-0.5094259
182	0x3de79a7b	0.11308762
183	0x3eb883cd	0.36038056
184	0x3da6e20b	0.08148583
185	0xbf8e3f2a	-1.1113026
186	0x3f2d53f9	0.6770626
187	0x3f6a6d4d	0.9157303
188	0xbedb84ba	-0.428747
189	0xbeed90d7	-0.46399567
190	0xbf377533	-0.71663207
191	0xb9af800d	-0.00033474006
192	0x3ec78235	0.38966528
193	0x3ea41f61	0.3205519
194	0xbf3a0984	-0.7267077
195	0xbf4ee301	-0.8081513
196	0x3e85e952	0.26154572
197	0xbfedc57b	-1.8575891
198	0xbf6cfe2a	-0.92575324
199	0x3d89b5af	0.067241065
200	0xbf7167c2	-0.94298947
201	0xbdc6a4fe	-0.096994385
202	0xbeca2ee4	-0.394889
203	0x3e9e3075	0.30896345
204	0xc0030dff	-2.0477293
205	0x3ebef315	0.37294832
206	0xbe4d587a	-0.20053282
207	0xbe7f7e37	-0.24950491
208	0xbea28c76	-0.31747788
209	0xbe3ee125	-0.18640573
210	0x3bb45f27	0.005504507
211	0x3e40b9f7	0.1882094
212	0x3e1ecb5f	0.15507267
213	0x3de81ff7	0.11334222
214	0x3e653244	0.22382456
215	0xbfb24d52	-1.3929846
216	0x3e0748f9	0.1321143
217	0x3daf9d5c	0.08574936
218	0xbe82578c	-0.25457418
219	0xbd11caaf	-0.035593685
220	0xbf4ffe3a	-0.81247294
221	0xbf3af86a	-0.730353
222	0xbf5d018d	-0.8633049
223	0x3f481c2b	0.7816798
224	0xbdf84a4c	-0.12123546
225	0xbf9e9ca9	-1.2391559
226	0xbf79d6bc	-0.97593284
227	0x3f31e46d	0.69489175
228	0x3f8c9581	1.0983125
229	0xbf439bbe	-0.7640952
230	0x3fac10b0	1.3442593
231	0xbf0debf7	-0.5543818
232	0xbd093cbe	-0.033505194
233	0x3ee10ea4	0.43956482
234	0xbdf1b369	-0.11801798
235	0x3e086c49	0.13322558
236	0xbe9ac233	-0.30226287
237	0xbf104855	-0.5636037
238	0x3eb3e10d	0.35132638
239	0xbfd3f07c	-1.6557765
240	0xbfdd376c	-1.7282538
241	0xbeb6483f	-0.35601994
242	0xbe88eaec	-0.2674173
243	0xbf093cfe	-0.5360869
244	0xbe913987	-0.28364202
245	0x3eee7472	0.46573216
246	0xbf818375	-1.0118243
247	0x3eb123b7	0.3459756
248	0x3dd2b050	0.10287535
249	0xbf0f864c	-0.56064296
250	0x3f042dac	0.5163219
251	0xbf71ef28	-0.9450555
252	0xbff1b92a	-1.8884633
253	0x3f116eca	0.56809676
254	0x3d950d20	0.07277894
255	0xbf92219b	-1.1416506

bias f4 [9]
0	0xbe8930c9	-0.26795033
1	0xbe588eb6	-0.2114819
2	0xbce80df6	-0.02832697
3	0x3dfe38b2	0.124131575
4	0xbc300a26	-0.010744607
5	0x3ccecf84	0.025245436
6	0x3e0cf222	0.13764241
7	0x3ea27d86	0.31736392
8	0x3d52ae43	0.05143572
